models/dnn.pth (torch, 13600 bytes, 5 tensors)

fc1.weight f4 [64, 10]
0.02645418 0.005039215 0.22630724 0.2624798 0.13046977 -0.09184605 0.2789589 -0.04238522
0.23528352 -0.047595322 -0.20491356 0.25876674 0.14449072 0.049842328 -0.12806496 -0.22121228
-0.028776616 0.2509947 0.0903883 -0.096290186 0.072355986 0.1800037 0.27197632 0.026255846
-0.22245839 -0.24942169 0.15081012 0.144754 -0.26845244 0.2564864 -0.031386733 0.1576705
-0.1725205 -0.179874 -0.06741443 -0.17557727 0.047224253 0.06632051 0.051068038 -0.25318265
0.032436848 0.05350873 -0.11057089 0.18637678 0.28752044 -0.24113157 0.24258974 0.030386
0.020223796 -0.0020474195 0.24552593 0.05085388 0.096156985 0.13458607 -0.114917204 -0.14667584
-0.28594154 0.18416455 -0.21578225 0.0152620375 0.11850998 -0.13639474 -0.29687616 -0.27231038
-0.020148754 -0.16759516 -0.29998973 -0.13915716 0.08303711 -0.033099353 -0.16385175 0.07842642
0.2430689 -0.16146186 -0.10283597 0.08948892 0.30666998 -0.059921056 0.10973027 0.24373665
0.21535096 -0.27491915 -0.10079485 0.00876835 -0.039976567 -0.11602719 -0.3137531 0.31305173
-0.10971561 -0.21564236 0.071303666 -0.15707046 -0.102593735 0.07722852 -0.022059053 -0.09662278
0.31121543 -0.11522274 -0.15216227 -0.2853899 -0.08529599 -0.1382641 0.04851246 -0.011658341
0.10386413 0.1585241 -0.265197 -0.24507761 -0.116242975 0.13987973 0.009611189 -0.2577295
-0.13152331 0.06835389 -0.05862066 -0.2551427 -0.006811172 0.257556 0.23981139 0.25097921
-0.26990414 -0.1162236 -0.30452526 0.24039826 0.1411832 0.16982818 -0.012313604 0.24125698
-0.2621078 -0.08740297 -0.06956658 -0.06973481 0.11051929 0.012848139 -0.28851318 0.17542818
0.16182363 -0.19320206 0.031350434 -0.11523858 0.06529966 0.037115812 -0.0072074234 -0.13021201
-0.09092386 -0.16770072 -0.1881141 0.20069042 0.25261346 -0.23519933 0.015578091 0.100648135
0.05503109 -0.2124395 -0.019364536 -0.095377 0.27765068 -0.11083229 0.30035326 0.11907661
-0.22778359 0.09541154 0.16402373 -0.19040716 0.025044978 -0.07861434 0.120669425 0.038296252
-0.21227708 0.22423252 -0.23005638 -0.21992612 0.20495519 -0.11611538 -0.03895256 -0.095861256
0.09383845 0.2743335 -0.11673504 0.26843736 0.089692265 -0.12983775 -0.039384514 0.23001406
0.15084961 -0.17012349 0.25926712 0.20488015 -0.23318493 0.1368976 0.21471325 0.08892149
-0.2506948 -0.30342788 0.20915142 -0.059493244 -0.044043183 -0.29052097 -0.29244378 -0.1706148
-0.291203 0.124805 -0.05850616 0.018431216 0.09147099 0.2046 0.2589585 0.2782199
0.16686222 -0.11734283 0.20051369 -0.08276202 -0.12356809 0.16031548 -0.18063979 0.248781
-0.30933335 -0.27052057 0.12251809 -0.2859667 0.06479555 -0.28047076 0.2536315 -0.09810707
-0.21907228 0.23416123 -0.15110339 -0.28446093 -0.3119429 0.2869251 -0.1473717 -0.18029033
0.11497033 -0.06342581 -0.0732608 0.06882864 -0.1643916 0.1330894 -0.21116203 0.1061452
0.23865172 -0.06733447 0.084160715 0.19776347 -0.14593694 -0.13311304 0.10095632 0.11563361
-0.29798615 0.21501872 0.011800796 -0.060230613 0.058752805 0.2177172 0.28451803 0.085882366
00000000: 70b6 d83c 0020 a53b 16bd 673e c163 863e
00000010: de99 053e c819 bcbd b3d3 8e3e 209c 2dbd
00000020: 2aee 703e 50f3 42bd dcd4 51be 137d 843e
00000030: 60f5 133e 7827 4c3d 7623 03be 7985 62be
00000040: f0bc ebbc 6182 803e 801d b93d ca33 c5bd
00000050: 602f 943d e452 383e 7b40 8b3e 8016 d73c
00000060: 22cc 63be 6668 7fbe f86d 1a3e 643a 143e
00000070: 9972 89be 2f52 833e 608f 00bd 6074 213e
00000080: 37a9 30be e430 38be 9410 8abd 87ca 33be
00000090: 386e 413d 0cd3 873d b82c 513d 28a1 81be
000000a0: 80dc 043d f82b 5b3d fe72 e2bd 8ed9 3e3e
000000b0: e135 933e 32eb 76be 7269 783e 10ec f83c
000000c0: 60ac a53c 002e 06bb 266b 7b3e 284c 503d
000000d0: f4ed c43d eed0 093e b659 ebbd 3132 16be
000000e0: ee66 92be a295 3c3e 06f6 5cbe a00d 7a3c
000000f0: 5cb5 f23d 10ab 0bbe 2700 98be 446c 8bbe
00000100: 000f a5bc 119e 2bbe 4198 99be 377f 0ebe
00000110: 5c0f aa3d 3093 07bd c1c8 27be 089e a03d
00000120: 0ee7 783e 4256 25be aa9b d2bd f845 b73d
00000130: d903 9d3e c86f 75bd 44ba e03d 1a96 793e
00000140: f684 5c3e 34c2 8cbe 886d cebd 20a9 0f3c
00000150: 78be 23bd aa9f edbd 3fa4 a0be 5148 a03e
00000160: 94b2 e0bd 5ad1 5cbe a807 923d 14d7 20be
00000170: aa1c d2bd fc29 9e3d 30b5 b4bc 2ae2 c5bd
00000180: a157 9f3e e6f9 ebbd 6dd0 1bbe a01e 92be
00000190: aaaf aebd 1b95 0dbe 00b5 463d a002 3fbc
000001a0: b8b6 d43d 2454 223e e7c7 87be a0f5 7abe
000001b0: cc10 eebd a23c 0f3e 4078 1d3c 1ff5 83be
000001c0: 0cae 06be 20fd 8b3d 381c 70bd 10a2 82be
000001d0: 4030 dfbb 61de 833e 1e91 753e 5980 803e
000001e0: e030 8abe a406 eebd bcea 9bbe f62a 763e
000001f0: 5492 103e 70e7 2d3e 00bf 49bc 120c 773e
00000200: fe32 86be 5400 b3bd ec78 8ebd 20d1 8ebd
00000210: f057 e23d 0081 523c 00b8 93be 72a3 333e
00000220: 18b5 253e c3d6 45be 5069 003d 3402 ecbd
00000230: d4bb 853d c006 183d 402c ecbb 4c56 05be
00000240: 4a36 babd bdb9 2bbe fca0 40be ca81 4d3e
00000250: 8d56 813e 18d8 70be 403b 7f3c 9c20 ce3d
00000260: 4868 613d be89 59be 60a2 9ebc 0455 c3bd
00000270: 3b28 8e3e 0afc e2bd e7c7 993e 70de f33d
00000280: 1a40 69be 2067 c33d d6f5 273e 18fa 42be
00000290: 202b cd3c 8e00 a1bd 8821 f73d 88dc 1c3d
000002a0: 2a5f 59be 369d 653e e693 6bbe 5034 61be
000002b0: c6df 513e e6cd edbd b88c 1fbd e852 c4bd
000002c0: 602e c03d 7175 8c3e c812 efbd 9f70 893e
000002d0: 94b0 b73d 30f4 04be a851 21bd ce88 6b3e
000002e0: 5278 1a3e da34 2ebe a9be 843e 1acc 513e
000002f0: 08c8 6ebe e22e 0c3e cadd 5b3e 781c b63d
00000300: 125b 80be e65a 9bbe ca2b 563e 30af 73bd
00000310: a066 34bd 2abf 94be 31bb 95be a5b5 2ebe
00000320: 8f18 95be c499 ff3d 28a4 6fbd 10fd 963c
00000330: 2455 bb3d aa82 513e 3596 843e d772 8e3e
00000340: eedd 2a3e 7051 f0bd 7653 4d3e 227f a9bd
00000350: 4411 fdbd be29 243e a3f9 38be 72c0 7e3e
00000360: f160 9ebe ac81 8abe c4ea fa3d 3a6a 92be
00000370: 88b3 843d dd99 8fbe fddb 813e 5cec c8bd
00000380: 7c54 60be f6c7 6f3e d9ba 1abe dda4 91be
00000390: fbb6 9fbe d9e7 923e 9be8 16be 079e 38be
000003a0: 9075 eb3d 64e5 81bd c209 96bd 08f6 8c3d
000003b0: 4656 28be 9648 083e dc3a 58be a862 d93d
000003c0: 1e61 743e a8e6 89bd 745c ac3d 8282 4a3e
000003d0: 7e70 15be c94e 08be 30c2 ce3d 50d1 ec3d
000003e0: a491 98be de2d 5c3e 2058 413c 60b4 76bd
000003f0: c8a6 703d 42f1 5e3e 59ac 913e 18e3 af3d

fc1.bias f4 [64]
0.031476438 -0.08835992 -0.21745536 0.14708582 0.15772662 0.16292626 -0.029669046 -0.0865089
0.30409065 0.0049655735 -0.19410944 -0.03770128 -0.2623918 0.11317584 0.2126678 0.13975471
0.01627934 0.00048550963 0.051940024 0.020591736 -0.24294955 0.29581746 -0.13240935 -0.16236818
0.19354239 0.23571059 0.14618349 0.2297878 0.058536887 -0.08749777 0.004962355 0.15332267
0.036196172 0.06622395 -0.23148096 -0.11523895 -0.07252313 -0.31257933 0.09059432 0.032499045
-0.17050113 -0.15831771 0.23407581 0.31528506 0.0126362145 -0.22442292 0.005155176 0.10899466
-0.0056663156 0.2417796 -0.034021527 0.15534052 0.26292232 -0.08598913 -0.008766472 -0.29110196
-0.123456925 -0.22769481 -0.28443286 0.19917068 -0.2573106 0.2581198 -0.06440163 0.2756168
00000000: 70ed 003d 0cf6 b4bd 9eac 5ebe aa9d 163e
00000010: 1683 213e 24d6 263e 800c f3bc 942b b1bd
00000020: c5b1 9b3e 40b6 a23b a0c4 46be a86c 1abd
00000030: 3858 86be bcc8 e73d 96c5 593e dc1b 0f3e
00000040: 405c 853c 008c fe39 10bf 543d 00b0 a83c
00000050: c4c7 78be 6375 973e 5196 07be d843 26be
00000060: fa2f 463e 1e5e 713e 20b1 153e 7e4d 6b3e
00000070: 60c4 6f3d 0832 b3bd 409b a23b 9e00 1d3e
00000080: 7042 143d 6ca0 873d 5809 6dbe 6602 ecbd
00000090: 0287 94bd 660a a0be 8489 b93d b81d 053d
000000a0: d997 2ebe 0a1e 22be 92b1 6f3e 0b6d a13e
000000b0: 2008 4f3c 1fcf 65be c0ec a83b 9838 df3d
000000c0: 80ac b9bb 1295 773e 285a 0bbd 9611 1f3e
000000d0: c19d 863e 121b b0bd 40a1 0fbc 510b 95be
000000e0: fcd6 fcbd d428 69be 2fa1 91be 66f3 4b3e
000000f0: 37be 83be 4728 843e 00e5 83bd a51d 8d3e

fc2.weight f4 [32, 64]
0.026428565 0.07691462 -0.05518444 0.027189314 -0.09038027 -0.039113045 0.020034984 -0.052257523
-0.067092866 -0.032367438 0.016777351 -0.011651844 -0.027456224 0.0963887 0.04088576 0.10356867
-0.008482277 0.0050174594 0.068978876 0.11554919 0.11192384 0.12172568 0.09806332 0.09466803
-0.11517249 -0.0261468 0.100390494 0.06340097 -0.114994615 0.04092729 -0.08545749 0.028235123
0.04505746 -0.029686034 0.07483786 0.033611834 0.11298941 -0.051629737 0.077269346 -0.031018987
0.007427469 0.014769256 0.10328707 0.0072316974 0.07600959 -0.06989835 -0.008486941 -0.07580884
0.11850481 0.048750713 0.013235167 -0.02100712 0.123569265 0.07662183 -0.043117523 -0.0918486
-0.037494123 -0.077925995 -0.09259547 0.0901787 0.0032540113 -0.10534543 0.018043786 0.015323132
0.057581633 -0.07549709 0.036495835 0.059778914 -0.04478471 0.03518638 -0.08450042 -0.019735828
0.02468808 0.036087245 -0.10693264 0.0816765 0.07020192 -0.121233016 -0.03363593 0.015068382
0.11825539 0.036616683 -0.013048813 -0.078006804 0.01865682 -0.0082722455 0.06912327 -0.037285224
-0.029429302 -0.026151627 -0.037067562 -0.12081671 0.11719985 0.10874984 -0.12451081 -0.07122919
-0.111640766 0.10823479 0.09773104 0.05068876 -0.050357595 0.05103761 -0.040988892 0.025444433
-0.026507825 -0.101652876 -0.08113183 0.07422967 0.0338908 -0.016697168 0.09911513 -0.10748157
-0.0965323 0.0016361326 0.062364817 -0.07866801 -0.12199451 -0.09398514 -0.09972221 0.0024308413
-0.08567351 0.04378757 -0.06013246 0.039868563 0.1227209 0.09001964 -0.058764726 0.09907755
0.0009524673 0.11294615 0.03871374 0.0348766 0.026565373 -0.0701361 -0.049796417 -0.011715621
0.116975546 0.046790615 -0.07231328 -0.11177781 0.009403437 0.09488921 0.09215672 0.09175275
-0.008276179 0.009562224 -0.054478005 -0.016574785 -0.12304871 0.028967917 0.08866517 -0.023279518
0.00025978684 0.00024482608 -0.073186755 0.10579543 -0.11077991 -0.096513346 0.12163903 0.068167746
-0.046931818 0.029572532 -0.0820639 0.07896651 -0.06310794 -0.017077774 -0.06696682 -0.09345478
-0.092303276 -0.111726746 -0.018466577 -0.03075926 0.010530978 -0.04520738 0.08435111 0.028410137
-0.10430618 0.07622701 -0.022614986 -0.087863415 -0.08640616 -0.09269905 0.02459386 0.039250463
0.09291911 0.108481035 0.081292704 -0.003100559 0.030969605 -0.006232947 -0.08543439 -0.039657503
-0.0029940754 -0.076671004 -0.05790007 -0.005973324 0.09708375 0.05823858 -0.08357763 0.10458872
0.059653312 -0.056359828 0.0643571 -0.086214215 0.11218928 -0.034632877 -0.0038979948 -0.07275443
0.09112881 -0.08410351 0.10306561 0.047610328 0.10580152 -0.054329634 -0.044282064 0.0012805164
0.061001346 -0.061922178 0.046119213 -0.020677328 -0.123237744 0.06711897 -0.10782218 0.107632995
-0.104302704 -0.06983493 0.009845108 0.09900549 0.069066495 -0.05549757 0.104130164 0.07557924
0.05540265 -0.040867403 0.013413414 -0.08472547 0.08908507 -0.046521544 0.10153088 -0.032548413
-0.10170604 -0.09305687 0.07101855 -0.030378237 -0.0187615 -0.07657629 0.06344162 -0.033994466
-0.028036058 0.11294401 -0.0049119294 0.051187783 -0.019744232 -0.095186695 -0.032692924 0.020419821
00000000: b880 d83c 6a85 9d3d 1409 62bd 20bc de3c
00000010: 4a19 b9bd 0035 20bd 6820 a43c fc0b 56bd
00000020: fc67 89bd b893 04bd a870 893c 60e7 3ebc
00000030: e0eb e0bc 7067 c53d d477 273d d01b d43d
00000040: 40f9 0abc 8069 a43b cc44 8d3d 0ea5 ec3d
00000050: 5438 e53d 504b f93d 6cd5 c83d 50e1 c13d
00000060: 8edf ebbd d031 d6bc 8899 cd3d 5ed8 813d
00000070: 4c82 ebbd 60a3 273d 5604 afbd 584d e73c
00000080: 2c8e 383d 2030 f3bc 9844 993d 90ac 093d
00000090: fe66 e73d b479 53bd 643f 9e3d 881b febc
000000a0: 2062 f33b c0fa 713c 2c88 d33d e0f7 ec3b
000000b0: eaaa 9b3d de26 8fbd d00c 0bbc aa41 9bbd
000000c0: a6b2 f23d d4ae 473d 50d8 583c 2017 acbc
000000d0: e211 fd3d e8eb 9c3d 009c 30bd 1e1b bcbd
000000e0: 7093 19bd aa97 9fbd b2a2 bdbd 9caf b83d
000000f0: 4041 553b 58bf d7bd 90d0 933c e00d 7b3c
00000100: b8da 6b3d 389e 9abd a87c 153d bcda 743d
00000110: 2c70 37bd 981f 103d 8e0e adbd 08ad a1bc
00000120: a83e ca3c 38d0 133d 80ff dabd 0246 a73d
00000130: 06c6 8f3d 0449 f8bd d4c5 09bd 60e1 763c
00000140: e22f f23d 60fb 153d b0ca 55bc 08c2 9fbd
00000150: 30d6 983c 5088 07bc 8090 8d3d 64b8 18bd
00000160: b815 f1bc f03b d6bc 28d4 17bd c06e f7bd
00000170: 7a06 f03d 3cb8 de3d 86ff febd 9ce0 91bd
00000180: eaa3 e4bd 34aa dd3d 3627 c83d 049f 4f3d
00000190: c443 4ebd d00c 513d f8e3 27bd d870 d03c
000001a0: f026 d9bc 622f d0bd 7228 a6bd ba05 983d
000001b0: 14d1 0a3d 80c8 88bc e0fc ca3d 4c1f dcbd
000001c0: bab2 c5bd 8073 d63a 4072 7f3d b21c a1bd
000001d0: 42d8 f9bd 487b c0bd 283b ccbd c04e 1f3b
000001e0: 9875 afbd 985a 333d 744d 76bd 384d 233d
000001f0: 1855 fb3d 385c b83d 48b3 70bd 2ce9 ca3d
00000200: 00af 793a 5050 e73d 4c92 1e3d c4da 0e3d
00000210: a09f d93c 84a3 8fbd 54f7 4bbd e0f2 3fbc
00000220: e090 ef3d 84a7 3f3d fc18 94bd c4eb e4bd
00000230: e010 1a3c 4655 c23d aabc bc3d dee8 bb3d
00000240: d098 07bc e0aa 1c3c 5424 5fbd d8c7 87bc
00000250: f600 fcbd 204e ed3c 1696 b53d b0b4 bebc
00000260: 0034 8839 005c 8039 f0e2 95bd 46ab d83d
00000270: 94e0 e2bd caa8 c5bd e21d f93d 889b 8b3d
00000280: 943b 40bd 1842 f23c 1e11 a8bd 32b9 a13d
00000290: bc3e 81bd b0e6 8bbc e625 89bd 3865 bfbd
000002a0: 8009 bdbd fed0 e4bd 3847 97bc d8fa fbbc
000002b0: 208a 2c3c 602b 39bd 46c0 ac3d 60bc e83c
000002c0: 7a9e d5bd e81c 9c3d 1043 b9bc bcf1 b3bd
000002d0: b6f5 b0bd 00d9 bdbd 1079 c93c 18c5 203d
000002e0: 604c be3d 4e2b de3d ca7c a63d c032 4bbb
000002f0: f8b3 fd3c c03d ccbb 3af8 aebd e86f 22bd
00000300: 4038 44bb b005 9dbd a028 6dbd e0bb c3bb
00000310: d8d3 c63d 948b 6e3d c02a abbd 9c32 d63d
00000320: 0857 743d 90d9 66bd a8cd 833d 1491 b0bd
00000330: 7ec3 e53d 34db 0dbd 8075 7fbb 4600 95bd
00000340: bea1 ba3d 763e acbd 1014 d33d 0c03 433d
00000350: 78ae d83d c088 5ebd 1c61 35bd 00d7 a73a
00000360: 8cdc 793d 1ca2 7dbd 80e7 3c3d 8063 a9bc
00000370: 1264 fcbd ac75 893d e0d1 dcbd b06e dc3d
00000380: a89c d5bd 9e05 8fbd 604d 213c 64c3 ca3d
00000390: bc72 8d3d 6c51 63bd 3242 d53d 4ac9 9a3d
000003a0: e4ed 623d 9464 27bd f0c3 5b3c 8c84 adbd
000003b0: 3c72 b63d 608d 3ebd 6cef cf3d 7c51 05bd
000003c0: 424b d0bd 9a94 bebd 2c72 913d c8db f8bc
000003d0: b8b1 99bc 08d4 9cbd aeed 813d c83d 0bbd
000003e0: e0ab e5bc 304f e73d 40f4 a0bb 48aa 513d
000003f0: a8be a1bc 3ef1 c2bd 04e9 05bd 7847 a73c

fc2.bias f4 [32]
-0.07243636 -0.072525814 -0.005063921 -0.1202618 0.103278875 -0.0854318 -0.122201756 0.021723047
-0.023250341 -0.08399561 -0.03683628 0.049713045 -0.008981362 0.070033535 -0.0951772 0.0053566247
-0.020955265 0.008979842 0.09671289 0.025951684 -0.07939643 -0.09493257 0.069400355 -0.1020343
-0.030800894 -0.051243126 0.06982806 -0.097048104 0.050600708 -0.022535428 -0.026259825 0.093119025
00000000: 8459 94bd 6a88 94bd 40ef a5bb d24b f6bd
00000010: e083 d33d def6 aebd ea44 fabd 88f4 b13c
00000020: 8077 bebc e405 acbd a4e1 16bd e89f 4b3d
00000030: 9026 13bc be6d 8f3d 44ec c2bd a086 af3b
00000040: 60aa abbc 3020 133c 6811 c63d a098 d43c
00000050: 989a a2bd 026c c2bd c621 8e3d 5cf7 d0bd
00000060: 2852 fcbc 50e4 51bd 0402 8f3d 28c1 c6bd
00000070: b042 4f3d 389c b8bc d81e d7bc 30b5 be3d

fc3.weight f4 [1, 32]
-0.032286093 0.15969409 -0.15170084 -0.06109392 -0.041039675 0.1438926 -0.14104226 -0.118278086
-0.16482222 -0.108706646 -0.034009516 -0.16274321 0.045247123 0.00048066676 -0.034974486 0.008124128
0.10369705 0.15819155 0.14305152 0.029792294 0.094330534 0.046647266 0.031906173 -0.109022684
-0.0385105 0.077654615 -0.07243229 -0.12162929 0.16422231 -0.06721775 -0.061485276 -0.090969585
00000000: 6c3e 04bd d986 233e 7757 1bbe 9e3d 7abd
00000010: 3819 28bd 9558 133e 626d 10be c83b f2bd
00000020: 28c7 28be 97a1 debd 904d 0bbd 28a6 26be
00000030: 0c55 393d 0002 fc39 6841 0fbd 101b 053c
00000040: 1e5f d43d f7fc 213e 197c 123e f80e f43c
00000050: 5e30 c13d 3411 3f3d 0cb0 023d 4947 dfbd
00000060: 30bd 1dbd 6209 9f3d 6157 94bd c718 f9bd
00000070: e529 283e 76a9 89bd fcd7 7bbd 434e babd
