models/vit.pth (torch, 53456 bytes, 90 tensors)

patch_embedding.linear_project.weight f4 [9, 1, 16, 16]
00000000: 1eab 073d 68c7 773d 5436 353d 18ad d63c
00000010: 14cb d2bc 48a6 9cbc 88f4 ef3c 3467 7f3d
00000020: baea 793d 0ca0 f1bc 0073 cebb 78b6 393c
00000030: c017 15bd 7659 59bd 3cf0 063d 9037 35bd
00000040: 4e45 0d3d 882f bd3c 448d 923c 7c41 c7bc
00000050: ae8c 093d 80de 7cba 3039 11bd 00eb e13c
00000060: face 58bd fa18 0dbd 70e8 72bc fcd1 8abc
00000070: fc27 a5bc e4c2 7f3d 886a c5bc 562a 693d
00000080: 3601 7abd 08c8 12bd 20cd 9c3b ae0c 33bd
00000090: 3af1 7bbd 1467 623d 008a a539 6634 523d
000000a0: bef8 55bd c8a4 27bd 6aef 23bd 404f 023c
000000b0: 0014 873b 2ca6 483d 50b2 4d3d d092 263c
000000c0: dee4 39bd 560f 0f3d cc17 a9bc 00f8 d73c
000000d0: 98d7 f5bc 40c4 d0bc 106d 973b e499 2f3d
000000e0: 6453 89bc 005b 573d 860e 6c3d 90e1 1e3d
000000f0: e8ff 75bc f07c 383c 6c7c 1f3d 38d7 8abc
00000100: 4492 ac3c 9cc8 fabc 7c23 953c a0c5 62bc
00000110: 3c0d d5bc 787d a0bc 4c2e 1cbd ace1 cfbc
00000120: 0081 1fbd d05b 1dbd dcbc f0bc 1c3b a23c
00000130: b819 a6bc 2e02 273d e630 6c3d b09f ce3c
00000140: 7497 2a3d a081 393d a0f3 6d3b e82f a83c
00000150: a093 47bd 8258 1b3d 2ea1 46bd 782d 1fbc
00000160: 8e22 5dbd 981c 563d c8fa 3fbd f087 a13b
00000170: 7061 b13b f2f0 613d e059 c4bb 4cc0 1abd
00000180: dc3e 8dbc e2ef 313d 64e1 7fbd 3275 313d
00000190: 58e7 4a3c 00ea 063d c638 52bd d4dd dbbc
000001a0: ca8c 5f3d e0ff 503c 4094 e93b e8d7 3e3c
000001b0: 205f 2b3b 3056 df3b 9204 3d3d 6ae4 53bd
000001c0: 7037 aa3c 3006 b5bb 4855 12bc e6ea 15bd
000001d0: 003a aabb 6c53 303d 5806 bb3c 368b 69bd
000001e0: 2090 babc a446 f8bc 60cf 57bc 9867 7abc
000001f0: 284d 043d a46a 583d 10a3 223c ec5d 433d
00000200: 7aeb 69bd 701b 983c f84d 8cbc 8ab6 213d
00000210: 0055 5e3c cc10 3c3d 8eca 58bd f856 6cbd
00000220: 981b 30bd 003b 523a bcd9 74bd 8057 05bd
00000230: a8f1 0a3c 06fe 163d 4882 a0bc 9274 22bd
00000240: 9c2c 3e3d 9084 2b3c ec5b fb3c 1a03 4c3d
00000250: a053 203b d2ca 593d 9846 56bd e89d 313c
00000260: 3a25 46bd e0df ec3b 2aee 693d 607d 68bb
00000270: d05e 39bc dc72 adbc 62db 47bd 7ebb 0dbd
00000280: b021 fdbc 92ea 06bd 4e3f 76bd 201c abbb
00000290: d8c4 1e3d 6680 0b3d 8214 6abd 985f 103d
000002a0: 54a8 033d 422f 77bd 12a8 09bd 4677 653d
000002b0: 5ca3 e03c 20d3 9c3b 00f1 cd3b 84de 5ebd
000002c0: b646 5f3d 48c5 fb3c 20a7 aebc d0f6 2ebd
000002d0: b09a 4abc 4455 0ebd 54b8 e0bc aca8 b33c
000002e0: 449c f0bc 0092 9cba 005c 9c39 9861 b0bc
000002f0: a8e5 dbbc f6a1 4abd c4e6 583d 7c22 0fbd
00000300: 0024 3cbb 8aea 4ebd 005f 463c 6492 3ebd
00000310: 6434 513d 1a26 3dbd 208f 153d 808d 083c
00000320: c08d 8abc 20dc b13c 68ef 71bc 40ee 0a3c
00000330: 7a8f 64bd 6456 dabc 20a4 41bc 8c65 a43c
00000340: a287 01bd d8dd 72bd e07f 6fbd 2cab c33c
00000350: 8ca9 76bd 10aa 3a3c fe78 683d e864 803c
00000360: 58e0 00bc a240 66bd 9ca3 90bc 6840 27bc
00000370: b8ce 75bd 0c85 a5bc c4b8 f9bc 8cf9 6c3d
00000380: 209b bcbc 8025 c5ba 6202 39bd b858 273d
00000390: 74f5 4dbd f089 793c 2053 d53c 906d dd3b
000003a0: e062 57bc 2c5e eb3c 127f 55bd a0b5 efbc
000003b0: 06e2 7e3d 1cf1 e93c 6072 183c 0699 763d
000003c0: c0ad 93bb f8e1 42bc ee09 743d 5442 da3c
000003d0: 602a 233b 6894 a13c c6f5 39bd eac7 2d3d
000003e0: d608 1e3d d4b5 b3bc d8d8 31bd 3058 4fbd
000003f0: b82a 783c 78bf 263c 08af eebc 8a55 52bd
0.033122174 0.060492903 0.044241264 0.026205584 -0.0257316 -0.019122258 0.029291406 0.06235428
0.06101487 -0.029495262 -0.00630033 0.011335008 -0.036399603 -0.053063832 0.03294395 -0.04424244
0.034489922 0.023093954 0.017889626 -0.024323218 0.03358143 -0.0009646192 -0.03545493 0.027577877
-0.052931763 -0.034447648 -0.014825925 -0.016945831 -0.020160668 0.06244172 -0.02409865 0.05692514
-0.06103631 -0.035835296 0.004785195 -0.043713264 -0.06150935 0.055274084 0.0003157407 0.051319502
-0.052239172 -0.040928632 -0.040023245 0.007953465 0.004122257 0.0489866 0.05021888 0.010166839
-0.04538428 0.034926735 -0.02064123 0.026363373 -0.03001003 -0.025484204 0.0046211556 0.04287137
-0.016763397 0.05257702 0.057631038 0.038789332 -0.015014626 0.011260256 0.038937017 -0.016948327
0.021065839 -0.030613236 0.018205397 -0.013841063 -0.026007287 -0.019591078 -0.03813009 -0.025376163
-0.038941383 -0.038417637 -0.02938693 0.019803576 -0.020275936 0.040773563 0.05766382 0.02522263
0.041648343 0.045289636 0.0036308542 0.020530656 -0.04872477 0.037926205 -0.048493557 -0.00971543
-0.053988032 0.052273363 -0.046870023 0.004929535 0.005413227 0.055161424 -0.0059921592 -0.037781045
-0.017241888 0.04344166 -0.06247081 0.043324657 0.012384258 0.032938004 -0.051323675 -0.026839174
0.054577626 0.012756318 0.0071282685 0.011648156 0.0026149228 0.0068156943 0.046146937 -0.051731504
0.020778388 -0.0055244192 -0.008931465 -0.03660097 -0.0051949024 0.043048307 0.022830173 -0.057017528
-0.022773802 -0.030307122 -0.013172001 -0.015283488 0.032300144 0.052836075 0.009926572 0.047696993
-0.057109334 0.01856777 -0.017127022 0.039480723 0.01357007 0.045914456 -0.052927546 -0.057700127
-0.042995065 0.0008019656 -0.05977796 -0.03255415 0.008480467 0.03686335 -0.019593373 -0.03966195
0.04642926 0.010468617 0.03068348 0.049807645 0.0024463907 0.05317194 -0.052313417 0.01084087
-0.048375346 0.0072288364 0.057111897 -0.003547512 -0.011314109 -0.021172933 -0.048793204 -0.034602635
-0.030899853 -0.032938547 -0.060118966 -0.0052218586 0.038761944 0.034057997 -0.057148464 0.035247415
0.032142952 -0.060347803 -0.03360755 0.05602195 0.027421646 0.0047859102 0.006284833 -0.054411426
0.054510795 0.03073372 -0.021319926 -0.042715847 -0.012365982 -0.034749284 -0.027431644 0.021931015
-0.029371388 -0.0011945367 0.00029823184 -0.021530911 -0.026842907 -0.049470864 0.05295445 -0.034944996
-0.002870798 -0.050516643 0.012107611 -0.046526328 0.051075354 -0.046178915 0.036513448 0.0083345175
-0.016913295 0.02171141 -0.014766552 0.008479655 -0.055800892 -0.026652522 -0.011818916 0.020067953
-0.03162349 -0.059293598 -0.05847156 0.023885332 -0.060220286 0.011393085 0.056756012 0.015673116
-0.007865988 -0.056213982 -0.01765614 -0.010208227 -0.060011595 -0.020205043 -0.03048361 0.057855174
-0.023023188 -0.0015041083 -0.045168288 0.040856093 -0.05028291 0.015230641 0.026040614 0.0067574456
-0.013146132 0.028731428 -0.052123137 -0.02926141 0.06222727 0.028557353 0.009304613 0.06020453
-0.0045067966 -0.011894695 0.059579782 0.026642956 0.0024897084 0.019724086 -0.045400403 0.04242698
0.038582645 -0.021937288 -0.04341969 -0.05062121 0.015146904 0.010177486 -0.029136196 -0.051351108

patch_embedding.linear_project.bias f4 [9]
00000000: 88b3 063c 002c 8839 60ca 18bd bcbe a8bc
00000010: 64e5 163d 76fe 61bd b8e9 693c 78f3 2b3d
00000020: 38ff aa3c
0.0082215145 0.00025972724 -0.037302375 -0.020598762 0.036839858 -0.055174313 0.014276914 0.041980237
0.02087365

positional_encoding.cls_token f4 [1, 1, 9]
00000000: 05c3 313f 1d42 933f c2b7 a53f c290 013e
00000010: c781 3540 ec40 e9bd e097 ff3e cada 5abe
00000020: fbe5 bfbe
0.694382 1.1504551 1.2946703 0.12652877 2.836046 -0.11389336 0.4992056 -0.21372524
-0.3748015

positional_encoding.pe f4 [1, 5, 9]
00000000: 0000 0000 0000 803f 0000 0000 0000 803f
00000010: 0000 0000 0000 803f 0000 0000 0000 803f
00000020: 0000 0000 a46a 573f 4051 0a3f 26e3 033e
00000030: 28de 7d3f fba4 883c e2f6 7f3f 6331 0d3b
00000040: d9ff 7f3f e1e2 9139 b7c7 683f 3311 d5be
00000050: f0c9 823e b881 773f 1da0 083d 88db 7f3f
00000060: 4e31 8d3b 64ff 7f3f e1e2 113a c381 103e
00000070: 2670 7dbf 9174 c13e cf05 6d3f 02e4 4c3d
00000080: f5ad 7f3f bfc9 d33b a2fe 7f3f 50d4 5a3a
00000090: cfbd 41bf 3055 27bf 39e6 fc3e 2497 5e3f
000000a0: a78c 883d 2b6e 7f3f f830 0d3c 91fd 7f3f
000000b0: dfe2 913a
0.0 1.0 0.0 1.0 0.0 1.0 0.0 1.0
0.0 0.84147096 0.5403023 0.12879619 0.9916711 0.016680231 0.9998609 0.002154433
0.9999977 0.00027825593 0.9092974 -0.41614684 0.2554469 0.9668231 0.03335582 0.99944353
0.004308856 0.9999907 0.00055651186 0.14112 -0.9899925 0.37784246 0.9258699 0.050022133
0.9987481 0.006463259 0.99997914 0.0008347677 -0.7568025 -0.6536436 0.49394396 0.8694937
0.06667452 0.9977748 0.008617632 0.99996287 0.0011130235

transformer_encoder.0.ln1.weight f4 [9]
00000000: 0000 803f 0000 803f 0000 803f 0000 803f
00000010: 0000 803f 0000 803f 0000 803f 0000 803f
00000020: 0000 803f
1.0 1.0 1.0 1.0 1.0 1.0 1.0 1.0
1.0

transformer_encoder.0.ln1.bias f4 [9]
00000000: 0000 0000 0000 0000 0000 0000 0000 0000
00000010: 0000 0000 0000 0000 0000 0000 0000 0000
00000020: 0000 0000
0.0 0.0 0.0 0.0 0.0 0.0 0.0 0.0
0.0

transformer_encoder.0.mha.W_o.weight f4 [9, 9]
00000000: 76e5 c7bd 93b8 1ebe 8256 243e c5db 9c3e
00000010: 9e31 5b3e f646 eebd e83c 83be 0819 3bbd
00000020: b82e 20be 8a29 133e d2da 503e 4008 18bd
00000030: 9e58 633e 20c6 16be be6c 7a3e 2048 923d
00000040: e605 f5bd 58c5 0d3d 005a e83c 404d e13b
00000050: 745a c03d 4064 fabd 9571 a23e aeb5 72be
00000060: 819f 9e3e d8b2 583d 40dc e4bb a074 15be
00000070: 809d 47bb bc2a d33d ee85 89be 9019 a6bd
00000080: f0b4 9fbc 8adb 1c3e 2e19 623e e0e2 4c3c
00000090: ab85 9abe 405a 1c3d 3023 993d b007 babc
000000a0: 08f5 1f3d 3235 80be 337a 03be b2e5 a0be
000000b0: 8049 bcbc 8afb 7d3e 5a1f 8abe 66e2 173e
000000c0: 5581 8f3e 60cb 69bc a04a 143e 486d 69bd
000000d0: 8060 673d 7218 603e d0f0 d5bd 7285 3d3e
000000e0: 4c39 f0bd 0089 a4bd 6c02 a3bd f02d 19be
000000f0: b441 ad3d e047 563d 506c 1b3e 8cdc 8dbe
00000100: 9b7c 38be a0ca 963d b84e 59be fb27 83be
00000110: 4020 30be f219 043e e457 90be b0dc 88be
00000120: ace5 85bd 669d 64be 4da5 9a3e 68ad 493d
00000130: 157d 803e 0089 38bc 6cc4 aa3d 5823 88be
00000140: 3048 33be
-0.09760563 -0.15500097 0.16048625 0.3063642 0.21405646 -0.116346285 -0.25632405 -0.04567817
-0.15642822 0.14371315 0.20395973 -0.037117243 0.22201774 -0.14724016 0.24455544 0.07142663
-0.11964016 0.03461203 0.028363228 0.006875664 0.093922526 -0.122261524 0.3172728 -0.23702118
0.30981067 0.052904934 -0.0069842637 -0.1459527 -0.0030458868 0.10310885 -0.26859993 -0.081103444
-0.019495457 0.15318123 0.22079918 0.012505263 -0.30180106 0.038172007 0.074774146 -0.022708744
0.03905204 -0.25040585 -0.12839584 -0.31425244 -0.022984266 0.24802986 -0.26977044 0.14832458
0.2802836 -0.01426968 0.14481592 -0.056988984 0.056488514 0.21884325 -0.10446322 0.18507937
-0.117296785 -0.08033943 -0.07959446 -0.1495893 0.084597975 0.05231464 0.15178037 -0.27707326
-0.18016283 0.073628664 -0.21221435 -0.2561644 -0.17199802 0.12900522 -0.28192055 -0.2673087
-0.06537947 -0.22325668 0.3020424 0.04923764 0.2509543 -0.011263132 0.08338246 -0.26589465
-0.17508006

transformer_encoder.0.mha.W_o.bias f4 [9]
00000000: e021 80be 0302 33be 9d1c 893e 0a17 8fbe
00000010: 2114 a13e 3a57 9bbe 0efd 0a3e aa3f 473e
00000020: 002e 05bd
-0.25025845 -0.17481236 0.26779643 -0.27947265 0.3146067 -0.30339986 0.13573095 0.1945788
-0.032514572

transformer_encoder.0.mha.heads.0.query.weight f4 [3, 9]
00000000: a06e 583d 1bad 51be ba65 763e 6843 65be
00000010: 65c0 833e a550 a63e 40cc fa3c 4cf4 b73d
00000020: 0026 2abb 95ab 923e c0b6 80bd 4372 983e
00000030: fde9 8c3e c639 78be d3ee 0fbe fa17 073e
00000040: ccf3 f53d e8bc 5abe 6bcd 6fbe 6c3f 80bd
00000050: c0d0 a4be 454f 873e 761e fdbd ea5e 98be
00000060: dcb3 8d3d 5ebb 27be e88d 3d3d
0.052839875 -0.20476191 0.24062243 -0.22388995 0.25732723 0.32483402 0.030614972 0.08982143
-0.0025962591 0.28646532 -0.06284857 0.29774675 0.2752227 -0.24240789 -0.14055948 0.1319274
0.12009391 -0.21361125 -0.23418204 -0.06262097 -0.32190514 0.26427665 -0.123593256 -0.29759914
0.06919071 -0.16380069 0.04627791

transformer_encoder.0.mha.heads.0.query.bias f4 [3]
00000000: 3650 eebd d0b8 b93d ff6e 86be
-0.11636393 0.09068453 -0.26256558

transformer_encoder.0.mha.heads.0.key.weight f4 [3, 9]
00000000: 809d 3b3b 7859 62bd d8f9 793d 182d 653d
00000010: 14cb 9bbe 5079 21be 4665 ebbd aed8 78be
00000020: ea62 2e3e cf73 94be 1041 07be e0d9 3fbd
00000030: f0ac 65be 70b5 153e 6bc9 39be bb22 4fbe
00000040: 3bac 61be c68e 183e 7c49 9d3d bb2c a93e
00000050: 131b 72be 18bf 413d 189a 293e 3eba 04be
00000060: e86d 5cbd e042 d53d f09b edbd
0.0028627813 -0.055261105 0.061029285 0.055951208 -0.30428374 -0.15768933 -0.11493926 -0.24301407
0.1702992 -0.28994605 -0.13208413 -0.04683864 -0.22429252 0.14619994 -0.18143241 -0.20228092
-0.22038357 0.14898214 0.07680032 0.3304194 -0.2364314 0.04730138 0.16562688 -0.12961671
-0.053815752 0.10413146 -0.11602008

transformer_encoder.0.mha.heads.0.key.bias f4 [3]
00000000: 8046 a03d e261 553e 5982 a53e
0.07825947 0.2083812 0.3232601

transformer_encoder.0.mha.heads.0.value.weight f4 [3, 9]
00000000: 766f 2a3e e063 11bd 0ff4 96be 4b03 0fbe
00000010: 7754 883e e8c8 06bd db8d a43e 1315 8e3e
00000020: 5613 603e 646d af3d 0038 203e 4d86 a03e
00000030: a9ad a63e fe5e 56be 387e 42bd de5a 02be
00000040: d840 2b3d f3e3 64be 5fd3 993e 208e 133d
00000050: c10b 933e 1fa8 94be ba68 98be c093 e23d
00000060: a634 083e 6381 91be d0b2 183e
0.16644081 -0.03549564 -0.29483077 -0.139661 0.26626942 -0.032906443 0.32139477 0.27750453
0.21882376 0.085657865 0.15646362 0.31352463 0.32554367 -0.20934674 -0.047483653 -0.12729976
0.041809887 -0.2235258 0.30044076 0.036024213 0.28719905 -0.29034516 -0.297674 0.11063337
0.13301334 -0.28419027 0.14911962

transformer_encoder.0.mha.heads.0.value.bias f4 [3]
00000000: 647a cf3d 501f d4bc 27db a6be
0.10130766 -0.025893837 -0.32589075

transformer_encoder.0.mha.heads.1.query.weight f4 [3, 9]
00000000: 4c49 a03d 08ff 9dbe e6db 63be c0ee 71be
00000010: 9ed0 4d3e 78ea 163e 0a8d 5e3e baf2 483e
00000020: 9306 91be 5a93 aabe 388c 88be 18f6 323d
00000030: 60ac 5e3d 5cb7 da3d 8a21 463e b90f 863e
00000040: a762 a4be d14a 843e 926c 6d3e f078 92bc
00000050: 402d 763d c852 013e 882b 5cbe 373d 9f3e
00000060: 461b 173e 6c8b d6bd 0857 123e
0.0782648 -0.30858636 -0.22251853 -0.23626232 0.20099112 0.1473788 0.2173349 0.19623843
-0.28325328 -0.33315545 -0.26669478 0.043691725 0.05436361 0.10679504 0.19348732 0.2618387
-0.32106516 0.2583833 0.23185948 -0.017879933 0.060101748 0.12629235 -0.21500981 0.3110139
0.14756498 -0.10475811 0.14291012

transformer_encoder.0.mha.heads.1.query.bias f4 [3]
00000000: 982d 423d 9080 013e c083 f63d
0.047406763 0.12646699 0.12036848

transformer_encoder.0.mha.heads.1.key.weight f4 [3, 9]
00000000: 00cd 79be 00aa 263d 0035 94be 184a 38be
00000010: faf9 673e 9337 873e dbfa 873e 42eb 703e
00000020: c492 92be 4acb 3e3e 56b9 18be d0c8 3dbe
00000030: f00d 48be 494d 993e c067 e13c caf5 433e
00000040: 5a89 8dbe 1a43 95be 07ce 9fbe 9803 213d
00000050: f871 2fbd 5a00 273e 65e1 8d3e 9b3c 8ebe
00000060: bac8 383e 60af ea3d 84b2 cf3d
-0.24394608 0.04068947 -0.28946686 -0.17997015 0.22653952 0.26409587 0.26558575 0.23527244
-0.28627598 0.18632236 -0.1491445 -0.18533635 -0.19536567 0.29941776 0.027515292 0.1913673
-0.27643853 -0.29152757 -0.31211874 0.039310068 -0.0428333 0.16308728 0.27711025 -0.27780613
0.18045321 0.114592314 0.10141471

transformer_encoder.0.mha.heads.1.key.bias f4 [3]
00000000: 6067 55bd 606f 053d 0c9d 88bd
-0.05210054 0.03257692 -0.06670579

transformer_encoder.0.mha.heads.1.value.weight f4 [3, 9]
00000000: 40ac aa3c 706f 12be 2ebe 2d3e f047 69be
00000010: 24a8 d73d 63e0 2ebe 9aa3 303e 4488 913d
00000020: 1295 413e 8274 623e 2cd5 d0bd ca5e aabe
00000030: 28a4 733d 4803 05be ff1a 933e 3bff 7ebe
00000040: 8a6d a7be 52ca 593e 3042 a63c da21 783e
00000050: 3ccd b6bd 53e0 0dbe 9835 243d 77a2 a8be
00000060: ec4f 8dbd e635 01be 3853 4bbe
0.020834088 -0.14300323 0.16967079 -0.22781348 0.10530117 -0.17077784 0.17249909 0.07106069
0.18904522 0.22114757 -0.10196909 -0.33275443 0.059482723 -0.12989533 0.28731534 -0.2490205
-0.3270076 0.21268585 0.020295233 0.24231663 -0.08925864 -0.13855104 0.040090173 -0.3293645
-0.069000095 -0.12618217 -0.19855964

transformer_encoder.0.mha.heads.1.value.bias f4 [3]
00000000: 236d a63e 6880 24bd 6049 32be
0.3250514 -0.04016152 -0.17410803

transformer_encoder.0.mha.heads.2.query.weight f4 [3, 9]
00000000: cc7a 99bd 58f1 413d ea14 6b3e 1f9d a1be
00000010: f07d f2bd 70f9 bc3d 3a32 753e 2087 28be
00000020: 00f4 083e 2e09 5c3e f272 333e 9615 163e
00000030: a83c 3ebe 503f 2abe f96c a93e 5df4 993e
00000040: b997 8c3e 0075 4ebe 60a1 413d 60fb 2cbc
00000050: 23c8 a6be f4c6 a23d 6e20 80be f796 82be
00000060: 3812 11bd 3637 d2bd 00c5 4bbc
-0.07494125 0.047349304 0.22957197 -0.31565186 -0.11840427 0.09227264 0.23944941 -0.16457796
0.13374329 0.21487877 0.17524317 0.14656672 -0.18577826 -0.16625714 0.33090952 0.30069247
0.27459505 -0.2016182 0.04727304 -0.010557979 -0.32574567 0.079481035 -0.25024742 -0.25505802
-0.035417765 -0.10264437 -0.012437105

transformer_encoder.0.mha.heads.2.query.bias f4 [3]
00000000: 83fb 93be 1d57 823e 822c 353e
-0.28902826 0.25457087 0.1769276

transformer_encoder.0.mha.heads.2.key.weight f4 [3, 9]
00000000: 7e6a a6be 7062 f0bc 3daf 873e 33ab 81be
00000010: 5c45 89bd dda7 843e 6622 613e 7cc7 b13d
00000020: d321 843e 18a2 203e 6060 8e3d a60e 93be
00000030: 162c bfbd ebc8 40be f8a0 5b3d a8fb 033d
00000040: 6262 363e 00e6 443b fc24 8ebe bf17 983e
00000050: d80e 04be 16e8 5ebe 0055 94ba f01d c13d
00000060: 6630 08be 9c7e fdbd a3b9 823e
-0.32503122 -0.029343814 0.26500884 -0.25325927 -0.067026824 0.2590932 0.21985778 0.08680627
0.25807056 0.15686834 0.06951976 -0.28722113 -0.093345806 -0.18826644 0.05362031 0.03222242
0.17810968 0.0030044317 -0.27762592 0.29705617 -0.12896287 -0.21768221 -0.0011316836 0.09429538
-0.13299713 -0.123776644 0.25532255

transformer_encoder.0.mha.heads.2.key.bias f4 [3]
00000000: f3f6 83be 8a7d 503e c09d 873c
-0.25774345 0.2036039 0.016554713

transformer_encoder.0.mha.heads.2.value.weight f4 [3, 9]
00000000: 679e 81be b4f4 d23d 965f 10be 7c5d f53d
00000010: c69c f4bd 00fc 4c3d f4ba d73d 64ac da3d
00000020: 40ee 883b 48fc 263d 34cd 89be 7cb6 ea3d
00000030: e02e 69bc 007a e1bc 9098 853d 3a2f 2d3e
00000040: 7021 933d c383 6abe e33c 6fbe b557 9c3e
00000050: 3ba9 07be b80f 5bbe d391 45be 117f 8b3e
00000060: 8be9 8dbe 5425 92be db23 90be
-0.25316164 0.1030058 -0.14098963 0.11980721 -0.11943965 0.050045013 0.10533705 0.10677412
0.0041787922 0.040767938 -0.2691437 0.114605874 -0.014232367 -0.027523994 0.065232396 0.16912547
0.07184112 -0.22901826 -0.2336307 0.30535665 -0.1324815 -0.21392715 -0.19293909 0.2724538
-0.27717242 -0.28544104 -0.28152356

transformer_encoder.0.mha.heads.2.value.bias f4 [3]
00000000: bdff a63e 946d dc3d 4e9c 33be
0.32616988 0.10763088 -0.17540094

transformer_encoder.0.ln2.weight f4 [9]
00000000: 0000 803f 0000 803f 0000 803f 0000 803f
00000010: 0000 803f 0000 803f 0000 803f 0000 803f
00000020: 0000 803f
1.0 1.0 1.0 1.0 1.0 1.0 1.0 1.0
1.0

transformer_encoder.0.ln2.bias f4 [9]
00000000: 0000 0000 0000 0000 0000 0000 0000 0000
00000010: 0000 0000 0000 0000 0000 0000 0000 0000
00000020: 0000 0000
0.0 0.0 0.0 0.0 0.0 0.0 0.0 0.0
0.0

transformer_encoder.0.mlp.0.weight f4 [36, 9]
00000000: 090a a73e b699 d1bd 8136 933e 7097 9f3d
00000010: 0085 d3ba 34f7 83be b66f a3be 3b47 17be
00000020: 96d9 debd ae85 6bbe 8d07 8e3e 38fd 6c3d
00000030: 3675 a7be 22a0 8bbe 7c46 9a3d b8e9 7e3d
00000040: b37a 7bbe e246 753e 6075 6dbc f846 3cbd
00000050: a6ca 77be fa5a a8be 7845 153d ba0d 643e
00000060: ecc9 95bd 33ba a53e 7e59 86be a6da f4bd
00000070: 807a 00bc bec8 043e 346b 93be 1c6e a2bd
00000080: 06df 3cbe e28e 6f3e bcb3 893d a91f 853e
00000090: 9c3a 96be c011 fd3d 5e5e 4abe dd06 9d3e
000000a0: 30b5 ea3c aed1 4ebe 4042 163d cf2f a23e
000000b0: f098 babd 004a 1e3a 8053 39bb 6003 c5bd
000000c0: 3847 4fbd 8826 543d a0fa fe3d c01c 063e
000000d0: c0fe 063d 444b fc3d 6d24 a43e 7804 393d
000000e0: 88ea 61bd c008 57be 0dd2 a13e e064 99be
000000f0: 848a 82be 0030 04ba d05a 67be b01c b13c
00000100: 23eb 853e 1085 60be dc9c b33d 9865 113d
00000110: d067 febc aa9f 043e 369b b6bd 202a 213e
00000120: bf30 9bbe a221 533e 54ee c03d dd85 823e
00000130: 0dbd a33e 5886 68bd f29f 94be 57fa a4be
00000140: 5066 023e ec48 e0bd e29a 3c3e c906 a93e
00000150: 1bf8 60be a0b8 06bc f00a 913c 06c9 31be
00000160: 5a17 9dbe d527 9a3e cfde a73e 6a1f 93be
00000170: b85c 353d b13d 833e 16c9 443e bf6f 92be
00000180: b87a 143d 0c23 debd 0026 e13c 62cf 423e
00000190: 1038 aebc 6473 cb3d 1e62 383e f65b 45be
000001a0: f42d ea3d 3b40 84be d606 543e 5c9a f4bd
000001b0: 602a 99be 2679 e1bd bccd 8b3d 7912 a93e
000001c0: 2486 823d 08b0 1a3d d289 333e 5c37 9bbe
000001d0: 7bde 11be 7d85 a73e 966a 303e 4bc6 53be
000001e0: 3600 bcbd 20a7 b83d 1010 853c e071 5fbd
000001f0: 35d1 853e 9060 d7bd 0b6c 02be 3ae7 083e
00000200: 14b1 8f3d 9d3f 9a3e 7d6f 873e 76e7 33be
00000210: ffa4 963e f613 18be 1c48 cf3d 70fd c8bd
00000220: 084a 1fbd a007 6e3c ad27 983e a048 283d
00000230: 4bbd 1cbe e322 14be 1264 473e 20e8 72bc
00000240: 0078 e3ba 78d9 39bd e2d0 083e 820b 623e
00000250: 439f 863e 6028 493d 40de 113e 90e5 963c
00000260: 0eb7 9bbe cf1b 9ebe 381a 0c3e 0e45 4f3e
00000270: 5325 97be 3b29 a83e e032 04bd 009c f73b
00000280: 1674 e9bd c261 193e c05c 87bd 9466 8cbe
00000290: fef1 5cbe d03e 1bbe 304b ddbc 3087 f1bd
000002a0: 16ff b1bd b690 ebbd 70b5 ccbd 9712 a43e
000002b0: b386 5abe 0099 88bd 4883 41be 3475 a0be
000002c0: 93eb 11be d3e6 1fbe 68dd 0dbe fd29 843e
000002d0: 9757 943e 38a3 673d 6be7 79be fd52 833e
000002e0: 2ebc 773e f005 a9bc b080 eabc 1049 6fbe
000002f0: 23d6 a13e 9fd8 863e e648 453e f0a6 ccbc
00000300: ec55 e23d 0bcd 95be d427 e13d 18c3 183d
00000310: 5add 7e3e 2e55 0e3e 7ad4 723e b33f 95be
00000320: 0a08 543e c043 c73c 0b2a 6bbe 3857 4fbe
00000330: 76a3 713e 20f6 493c 5245 793e 70fb cdbc
00000340: d8da 143e b3e2 70be 9959 a23e 3335 a53e
00000350: c069 943c d008 4cbe 7085 8c3c d223 783e
00000360: f012 b8bd 50d8 dbbd a4f0 c83d 05b1 903e
00000370: 1827 423d 20db 03bd 7e5e 713e eae4 4d3e
00000380: 2710 82be 6290 463e 84de a3bd 2639 453e
00000390: f4c0 c63d 388c 663d 1f85 853e a571 aa3e
000003a0: b03d a4bd 2020 a3bd dc7d 95be 467b 78be
000003b0: 6817 97be 80bd 51bc 02ed 3a3e d084 c7bc
000003c0: f042 82bd 2ab4 493e ddc2 843e 930a 89be
000003d0: 8628 6b3e 9a97 713e 73e8 97be 4bb6 1abe
000003e0: 1b55 a8be 4a6e a9be 10bb 9bbe 0489 833d
000003f0: 2eef 74be 4e34 323e 2c9f 803d 9ce4 e9bd
0.32624844 -0.10234396 0.2875252 0.07792556 -0.001613766 -0.2577454 -0.31921166 -0.14773266
-0.10881345 -0.23000214 0.27740136 0.057858676 -0.32706612 -0.2727061 0.07532975 0.06223461
-0.24558525 0.23952821 -0.014493316 -0.04596612 -0.24198398 -0.3288191 0.036443204 0.22270861
-0.07313904 0.3236862 -0.26240152 -0.119557664 -0.007841706 0.12967202 -0.28792727 -0.07931158
-0.18444452 0.23394349 0.06723735 0.26000717 -0.2934159 0.12356901 -0.1976256 0.306693
0.02865085 -0.20197174 0.036684275 0.316771 -0.09111202 0.00060382485 -0.002827853 -0.09619784
-0.05060503 0.05179456 0.12450147 0.13096905 0.032957792 0.12319043 0.3205904 0.045170277
-0.055155307 -0.20999432 0.3160557 -0.29959774 -0.25496304 -0.0005042553 -0.22593236 0.021620125
0.26155958 -0.2192576 0.08770153 0.035497278 -0.031055361 0.12951532 -0.08916323 0.15738726
-0.30310628 0.20618299 0.094204575 0.25492755 0.31980172 -0.056768745 -0.2902828 -0.32222244
0.12734342 -0.10951409 0.18418458 0.3301299 -0.21969645 -0.008222729 0.01770541 -0.1736184
-0.30681878 0.30108514 0.32787177 -0.28734905 0.044277877 0.25633004 0.19217333 -0.2860088
0.036249846 -0.108465284 0.02748394 0.19024423 -0.021266967 0.099341184 0.18006179 -0.19273362
0.11434546 -0.25830254 0.20705733 -0.11943504 -0.29915142 -0.11009435 0.0682635 0.33021906
0.063732415 0.037765533 0.17533043 -0.30315673 -0.14245026 0.3271903 0.1722816 -0.20681112
-0.09179728 0.090162516 0.01624301 -0.05455196 0.26136175 -0.10516465 -0.12736528 0.13369456
0.07016197 0.30126658 0.26452246 -0.17568764 0.29422757 -0.14851364 0.10121176 -0.09813964
-0.03888896 0.014528185 0.2971777 0.041084886 -0.15306585 -0.14466433 0.19471768 -0.014825851
-0.0017354488 -0.04537341 0.13360932 0.22074702 0.26293382 0.04911077 0.14244938 0.01842001
-0.30413097 -0.3088059 0.13681877 0.20241186 -0.29520664 0.32843956 -0.03227508 0.0075564384
-0.11399095 0.14978698 -0.066094875 -0.2742201 -0.21576688 -0.1516068 -0.027013391 -0.11793363
-0.08691232 -0.11502211 -0.09995544 0.32045433 -0.21340446 -0.066698074 -0.18897736 -0.3133942
-0.1425002 -0.15615396 -0.13853991 0.25813285 0.28973076 0.056552142 -0.24404685 0.25649253
0.24192879 -0.020632714 -0.028625816 -0.23367715 0.31608686 0.26337144 0.1926609 -0.024981946
0.110515445 -0.29257998 0.10993925 0.03729543 0.24889126 0.13899681 0.23713866 -0.2915016
0.20706192 0.024324298 -0.22965257 -0.20248115 0.23597512 0.012326747 0.2434285 -0.025144309
0.14536607 -0.23523979 0.31708983 0.3226715 0.018116832 -0.19925237 0.017153472 0.24232414
-0.08987987 -0.10734618 0.098115236 0.28260055 0.047400564 -0.032191396 0.23571202 0.20106855
-0.25402948 0.19391015 -0.08001426 0.19260082 0.09704772 0.056286067 0.26078126 0.3328983
-0.080195785 -0.07965112 -0.29197586 -0.24265775 -0.29510045 -0.012801528 0.18254474 -0.024355322
-0.063604236 0.19697633 0.2592992 -0.2676588 0.22964677 0.23592988 -0.29669532 -0.15108602
-0.3287743 -0.33091956 -0.30416155 0.06422618 -0.23919365 0.17402765 0.062803596 -0.11420557

transformer_encoder.0.mlp.0.bias f4 [36]
00000000: 1497 8abe 7a45 663e 66a6 9fbe b6fc 01be
00000010: a2f0 443e 8abf 353e 6b58 27be 0c20 94bd
00000020: 16c6 6dbe 9ff9 953e 2060 c63d c0d1 6d3d
00000030: 27db 883e e869 94be 2093 efbd 4026 dd3b
00000040: 64b9 f63d 1cef 9abe c470 cd3d 95d7 a63e
00000050: a889 633d 8c10 cabd ee46 79be f053 e8bd
00000060: d396 8abe 9b3c a93e 6451 a53d 7c3d c93d
00000070: 77c6 a93e 00b5 5bbd 205d fdbd 3b60 23be
00000080: 0325 81be 98e2 103e bb8e 83be 8409 86be
-0.27068388 0.2248744 -0.3118164 -0.12694058 0.19232419 0.17748848 -0.16342323 -0.07232675
-0.23220095 0.29292008 0.09686303 0.05806136 0.267297 -0.2898705 -0.11697984 0.0067489445
0.12047079 -0.3026055 0.10031274 0.3258635 0.0555512 -0.09866437 -0.24343464 -0.11344135
-0.27068195 0.3305405 0.08072165 0.0982618 0.3315923 -0.053639412 -0.12371278 -0.15954678
-0.2522355 0.14148939 -0.25694832 -0.26179135

transformer_encoder.0.mlp.2.weight f4 [9, 36]
00000000: 777d 263e ca21 27be 5424 0abe f9f1 0f3e
00000010: 005c 0339 2049 4a3d 1374 8abd 4e27 1dbe
00000020: 40f0 56bb 489e f53c 3000 4f3d debd c03d
00000030: f722 1b3e 301e acbd 2bd8 99bd a84a bc3c
00000040: f5cd 153e 8cb9 13be 8063 c63b de75 cbbd
00000050: 6079 dbbb c088 cc3c 280b c9bd 7673 72bd
00000060: a0de f93b a83e d6bd cbab b1bd 6436 573d
00000070: 6f32 1b3e f006 fabd 5803 a3bd e14e 203e
00000080: e5a9 2a3e f812 f0bc 988e 94bc ef6d 243e
00000090: 88ef cc3c 00c5 093d 8a71 14be 548b 083d
000000a0: 3c31 4b3d 007c 9abd 1004 9e3d 1871 a5bc
000000b0: c042 05bb dc0f 42bd 9223 803d d8b8 b4bc
000000c0: e847 1bbe 638c 013e e287 e43d c033 6d3c
000000d0: 8807 db3c a0e3 d5bb 964e db3d bfad 01be
000000e0: f0e6 26be b339 01be b022 633d 40de 153b
000000f0: f93b 153e 782d 8ebc 03f4 e5bd 21c9 003e
00000100: 00fe 8f39 8a2c a53d 2952 183e 4065 7fbb
00000110: b3ec 253e 77f7 1d3e e06a 9fbb f6fa 63bd
00000120: d277 cb3d a642 56bd 5e40 ed3d 403f 82bc
00000130: 5b09 d4bd fe45 ca3d 268d a13d a8ad a6bc
00000140: 0e64 0fbe a892 a43c 2092 0a3d dc64 3e3d
00000150: 4008 1cbb 8385 23be 78c4 c2bc 1382 88bd
00000160: 880c acbc d0ac 603c a6bc a93d f994 1c3e
00000170: 000b dfbb 6298 c43d e010 24bd 4bbb 053e
00000180: d867 e7bd b00c 1ebe 76bd ef3d f003 833d
00000190: c602 b4bd 5644 98bd 9633 41bd 50b4 103c
000001a0: d090 5bbc 7e7d 28be 10da 213c 3eb2 f3bd
000001b0: 3727 0a3e 7c1c 0abd a07c 903c dafa c93d
000001c0: 3044 72bd e8f3 a33c bfae 0c3e f00e 1cbe
000001d0: f0e9 503c 00b4 54bb 18f8 d6bd 3650 3fbd
000001e0: 7973 013e 808b 6d3d b6a4 f93d 4011 393d
000001f0: 3b18 e3bd b05a 09bc 404b 0abe 80c6 54bc
00000200: 483f 983c 406c 67bc 2bc2 16be 7016 473c
00000210: f6ac b13d 0056 9dba 00f7 a1bc 16f6 f4bd
00000220: cb9f acbd cc02 223d 5e64 ec3d 7076 14be
00000230: 0e01 903d 1028 f8bd 5677 923d 1a80 cc3d
00000240: 7cce 50bd a7ad 00be 06f3 f7bd 5a83 d13d
00000250: 230d 153e 6ac2 f23d cf89 003e 32cd c23d
00000260: 4cf1 0a3d 3ceb 0bbe 80b1 94bc 423b b33d
00000270: fc64 26bd 96dc 50bd f545 093e 766b 813d
00000280: b20d 1cbe 5aec 823d 3822 be3c 6cb0 7dbd
00000290: 0edb 9abd f6ec 21be 732a 1bbe f683 bebd
000002a0: fc02 29be eb57 f3bd 533e 26be 3803 ddbd
000002b0: 3314 c1bd 986b c33c 26bd dcbd d8e2 debd
000002c0: 44ca 353d 705e 6fbd 2a23 b83d 0865 28be
000002d0: 4677 c53d 10fe 4e3d 537a f8bd 615b 033e
000002e0: 01ae 053e 2044 b6bc de55 8c3d 87bf 24be
000002f0: e0cc 133d 88c5 9c3c e384 dfbd b78b 153e
00000300: d680 e0bd e235 b13d 68a2 d5bd 581d d2bc
00000310: 3206 b33d 18a2 11be a05e aebb c0e0 9f3d
00000320: a4b2 16be 982f f5bc 735c 073e 60c5 ecbd
00000330: 98f9 e7bc 82cc 823d 2331 b8bd d004 7ebc
00000340: e61d b83d b8a9 e13c 1309 093e 6ec7 eabd
00000350: d1da 293e 3108 073e 6a39 bd3d 8d20 133e
00000360: d228 fb3d 2821 d3bd 6bdc dbbd b462 2a3d
00000370: 5c45 0c3d 5eee f4bd e2a1 f93d b0fc 873d
00000380: 4d23 253e 08a9 c0bc 2bab 9ebd 1666 39bd
00000390: 2553 0a3e 2bd4 08be 7967 1d3e a82d 903d
000003a0: 7670 b93d 2261 d93d e44e 683d 1ab0 9b3d
000003b0: 9661 e23d 52b6 b33d a83f d7bd 66fb 1bbe
000003c0: e043 96bd c2d1 dd3d f2c0 d63d c74f 26be
000003d0: c03f 24bc 8081 f93b 985d bb3c 6e0f 06be
000003e0: 4c09 4abd fe73 d2bd 9a42 cb3d 4df0 013e
000003f0: 422d 983d 160b b0bd ce4f ddbd 100b 84bd
0.16258799 -0.16321483 -0.1349042 0.14057149 0.00012527406 0.049386144 -0.06760421 -0.15347025
-0.0032797009 0.029982701 0.05053729 0.09411214 0.15150057 -0.08404195 -0.07511934 0.022984818
0.14629348 -0.1442625 0.006054342 -0.09934591 -0.0066978186 0.024967551 -0.09816581 -0.059192143
0.007625416 -0.104611695 -0.08675345 0.052542105 0.15155958 -0.122083545 -0.07959622 0.1565509
0.16666372 -0.02930592 -0.0181344 0.16057561 0.025016561 0.03363514 -0.14496437 0.033336
0.0496075 -0.075431824 0.077156186 -0.020195529 -0.0020333976 -0.047378406 0.062567845 -0.022060797
-0.15164149 0.1265121 0.1115873 0.01447767 0.02673699 -0.006527379 0.107083485 -0.12663935
-0.16299033 -0.12619667 0.055453002 0.0022868067 0.14573659 -0.017355666 -0.11228182 0.12576725
0.0002746433 0.08065136 0.14875092 -0.0038970262 0.16203575 0.15426432 -0.0048650354 -0.055659257
0.09934963 -0.052309655 0.11584543 -0.0158993 -0.10353347 0.09876631 0.0788825 -0.020346478
-0.14003012 0.020089462 0.033830762 0.046482906 -0.0023808628 -0.159689 -0.023775324 -0.06665435
-0.02100207 0.013713077 0.08287935 0.15291204 -0.006806731 0.09599377 -0.040055156 0.13059728
-0.112991035 -0.15434527 0.11706059 0.063972354 -0.087895915 -0.07434909 -0.047168337 0.008832052
-0.013401225 -0.16454121 0.00987865 -0.118992314 0.13491522 -0.03371857 0.01763755 0.09862299
-0.05914706 0.020013765 0.13738535 -0.15240073 0.012751088 -0.0032455921 -0.10496539 -0.046707354
0.12641706 0.057994366 0.12189619 0.045182467 -0.11088606 -0.008383438 -0.13505268 -0.012986779
0.018584862 -0.01412493 -0.14722507 0.012151346 0.08675568 -0.0012003779 -0.0197711 -0.11961
-0.084289156 0.03955345 0.11542581 -0.14498305 0.07031451 -0.12117016 0.07151668 0.09985371
-0.05097817 -0.12566243 -0.121069 0.102301314 0.14555793 0.11853488 0.1255257 0.09511794
0.033921525 -0.13663954 -0.018151045 0.08751537 -0.04062365 -0.050991617 0.13405593 0.06319325
-0.152396 0.06392737 0.023209676 -0.061935827 -0.075613126 -0.1581305 -0.15152912 -0.09302513
-0.16505045 -0.118820034 -0.16234712 -0.107916296 -0.09427681 0.023855016 -0.10778265 -0.10883111
0.04438235 -0.058439672 0.08991082 -0.1644479 0.0964189 0.05053526 -0.121327065 0.12827827
0.13054658 -0.022249281 0.06852315 -0.16088687 0.036084056 0.019137159 -0.10914018 0.14604078
-0.109620735 0.086528555 -0.10431367 -0.025648758 0.08741416 -0.1422199 -0.005321339 0.078065395
-0.14716583 -0.029929921 0.1321886 -0.11561084 -0.028317258 0.06386663 -0.08993747 -0.015504077
0.08990078 0.027546749 0.13382368 -0.114638194 0.16587378 0.13186719 0.092394665 0.14367886
0.12263645 -0.103090584 -0.10735401 0.041598037 0.034245834 -0.119595274 0.1218908 0.06639993
0.16126747 -0.0235181 -0.077474914 -0.045263372 0.1350828 -0.13362186 0.15371503 0.07039958
0.09054653 0.1061423 0.05671586 0.07601948 0.11053769 0.08775009 -0.10510188 -0.1523262
-0.07337165 0.10831024 0.1048602 -0.1624137 -0.010024965 0.0076143146 0.022871777 -0.13091823
-0.049325272 -0.1027603 0.099248126 0.12689324 0.07430507 -0.085958645 -0.10806237 -0.064474225

transformer_encoder.0.mlp.2.bias f4 [9]
00000000: 3071 163c a056 d3bb 9c39 113d 48e1 c9bd
00000010: 0041 a9bd abe4 ddbd 80d6 cfbb 1682 11be
00000020: 926d c63d
0.009182259 -0.0064495355 0.03545533 -0.09857422 -0.08264351 -0.108346306 -0.006342709 -0.1420978
0.09688868

transformer_encoder.1.ln1.weight f4 [9]
00000000: 0000 803f 0000 803f 0000 803f 0000 803f
00000010: 0000 803f 0000 803f 0000 803f 0000 803f
00000020: 0000 803f
1.0 1.0 1.0 1.0 1.0 1.0 1.0 1.0
1.0

transformer_encoder.1.ln1.bias f4 [9]
00000000: 0000 0000 0000 0000 0000 0000 0000 0000
00000010: 0000 0000 0000 0000 0000 0000 0000 0000
00000020: 0000 0000
0.0 0.0 0.0 0.0 0.0 0.0 0.0 0.0
0.0

transformer_encoder.1.mha.W_o.weight f4 [9, 9]
00000000: 33ad 41be f8a6 023e 7add 1e3e 9058 9fbc
00000010: f674 603e c0da a8bb fc2b 853d 0803 6cbd
00000020: 6b3a 69be e05b b5bd c85f 153e 802f b7bc
00000030: b0fa a7bd 9086 a43d d0cf f5bd b91f 843e
00000040: 3e03 623e 4003 d43d 222d 473e 887c 27bd
00000050: 970e 983e 43c9 10be 608d 96bd 1a08 0d3e
00000060: 9862 6fbe db4b a7be 5a64 743e 3c89 823d
00000070: dd2e a33e 1c96 8b3d e87d 08be 2418 e53d
00000080: 9013 fabc a6aa a0be 6221 7d3e 8d55 913e
00000090: bbcf 33be 7c90 c23d 00c0 0239 e041 32be
000000a0: 32f6 7c3e fe8a 5cbe 72a2 97be 1903 9b3e
000000b0: 9ec0 7c3e dbea 13be a841 183e 1cfa ea3d
000000c0: 5309 89be 7aee 423e 1ab3 4c3e 209c b2bd
000000d0: 0a85 80be 10ac 9c3d 6c44 efbd 1edb 66be
000000e0: 084d 13be ac36 e1bd 5827 72bd 602f 17be
000000f0: b4a2 9fbe a6ba d1bd 20b4 99be e055 683c
00000100: 567e 5e3e d477 9a3d 2967 a63e 0404 a5be
00000110: 1c80 e5bd eb83 01be 185f 693d 08a8 06bd
00000120: a208 99be 3eca a6be 3997 a23e 1f6f a33e
00000130: 095d 8b3e caa1 1f3e d834 0abe 4e8e 123e
00000140: 8049 1abb
-0.18913727 0.12759006 0.15514174 -0.01945141 0.21919617 -0.00515303 0.0650253 -0.05762008
-0.22776191 -0.088554144 0.14587319 -0.022361517 -0.08202112 0.08033478 -0.12002528 0.25805452
0.2207155 0.103521824 0.1945081 -0.040890247 0.2969863 -0.14139275 -0.07351184 0.13772622
-0.23377454 -0.3267506 0.23866406 0.06373832 0.3187169 0.068157405 -0.1332928 0.11186245
-0.030526906 -0.31380194 0.24719766 0.28385583 -0.17559712 0.095002145 0.00012469292 -0.17407942
0.24703291 -0.21537396 -0.29616123 0.302758 0.24682853 -0.14445059 0.14868796 0.11473486
-0.26764926 0.19036284 0.19990197 -0.08721185 -0.251015 0.07650006 -0.11682972 -0.22544524
-0.14384854 -0.10996756 -0.059119552 -0.14764166 -0.3117882 -0.102406785 -0.30020237 0.01418063
0.21727881 0.07542387 0.3250058 -0.32229626 -0.112060755 -0.12647979 0.056975454 -0.03287509
-0.298894 -0.32576174 0.31756 0.31920716 0.27219418 0.15589061 -0.13496721 0.14312097
-0.0023542345

transformer_encoder.1.mha.W_o.bias f4 [9]
00000000: 664d 0f3e 7b41 49be e008 47bc 94fa a8bd
00000010: 5699 b3bd d722 8cbe 9650 5e3e 2c40 85bd
00000020: 4820 41be
0.13994369 -0.19653885 -0.012148112 -0.08250919 -0.08769481 -0.2737033 0.21710429 -0.065063804
-0.1885997

transformer_encoder.1.mha.heads.0.query.weight f4 [3, 9]
00000000: a0f4 0cbe 2ca0 af3d 94aa 94bd 404b b03c
00000010: b8d3 1bbe 939b 76be 8fa0 a8be 0017 e2bd
00000020: e0b4 073c 2d53 8e3e d068 073e 800e 28bb
00000030: f0b1 e83c de6b 4bbe 6305 873e 94fe 9e3d
00000040: c8b3 7a3d 64ed 9cbd 220c 1a3e 8dde 933e
00000050: 1802 3dbd 5c99 c9bd 83d4 47be 2471 95be
00000060: b484 91be 6eba 26be d2bd 6e3e
-0.13765192 0.08575472 -0.07259098 0.021520257 -0.15217483 -0.24082784 -0.32934996 -0.11039543
0.00828287 0.27797833 0.13223577 -0.0025643408 0.02840516 -0.19865367 0.26371297 0.07763401
0.06120661 -0.07662466 0.15043691 0.2888073 -0.046144575 -0.09843704 -0.1951466 -0.29187882
-0.28421557 -0.16282055 0.23314598

transformer_encoder.1.mha.heads.0.query.bias f4 [3]
00000000: 19a7 983e 12f0 8fbe 6c06 bfbd
0.29814985 -0.28112847 -0.09327397

transformer_encoder.1.mha.heads.0.key.weight f4 [3, 9]
00000000: 64c8 85be 7a9d 7f3e 545b 81bd 2a00 5d3e
00000010: c72e 943e 42ed 773e 7c19 d1bd 0bc3 5ebe
00000020: 2027 92be 5dfe 9e3e ca8a 5f3e 1d3b a93e
00000030: bbef 65be 9855 12be 80c0 61bb 7fa3 80be
00000040: a6ed 74be 39af 9f3e 7838 8cbe c0cc 9fbe
00000050: 9e8a 6f3e 1480 9cbd 70a4 f73c 66ae c8bd
00000060: 006b f43a 2e86 5abe e653 2ebe
-0.26129448 0.24962416 -0.063162476 0.21582094 0.28941938 0.242116 -0.10209939 -0.2175409
-0.28545475 0.3105344 0.21830288 0.33052912 -0.22454731 -0.14290464 -0.0034447014 -0.25124738
-0.2391878 0.31188372 -0.27386832 -0.312109 0.23392722 -0.076416165 0.030229777 -0.09798889
0.0018647611 -0.21340248 -0.17024192

transformer_encoder.1.mha.heads.0.key.bias f4 [3]
00000000: 3099 de3c e31b 7ebe b55e 833e
0.027172655 -0.24815325 0.25658193

transformer_encoder.1.mha.heads.0.value.weight f4 [3, 9]
00000000: 86a1 81be 76c4 cdbd 5cc8 bb3d 86ab efbd
00000010: f096 8dbe ef7d 953e 9626 043e ffdb 9fbe
00000020: a230 80be e84b 3abd 80f9 283c 7a40 743e
00000030: ff52 8b3e 60a6 28be fa2b 053e c07d f23b
00000040: 7079 953d 607f 2cbe 5022 9fbc 1aea 353e
00000050: 4c81 f8bd 983e 1dbe c84e 35bd f4e8 9a3d
00000060: 534a 2bbe 62de 353e 0042 46bc
-0.25318545 -0.100472376 0.09169075 -0.117026374 -0.2765422 0.29197642 0.12905344 -0.3122253
-0.25037104 -0.045482546 0.010313392 0.23852721 0.27211758 -0.16469717 0.13005057 0.0074002445
0.07298553 -0.16845465 -0.019425541 0.17765084 -0.121340364 -0.15355909 -0.044264585 0.075639635
-0.16727571 0.17760614 -0.012100697

transformer_encoder.1.mha.heads.0.value.bias f4 [3]
00000000: eb79 11be 0034 d23d ac72 cbbd
-0.14206664 0.102638245 -0.09933981

transformer_encoder.1.mha.heads.1.query.weight f4 [3, 9]
00000000: 7d19 a03e 000a bfbb 8ce7 a0bd 894e a13e
00000010: 80ef 78bc 2682 74be a097 0f3d 25d6 a93e
00000020: f915 9a3e e094 933d 1024 e63d 2801 283d
00000030: 382c 283d ea13 213e e798 a4be dc6b e8bd
00000040: 3c21 fc3d 88eb 98be 3e29 87be 2edc 10be
00000050: e0b2 0d3d 60b2 fe3d 2c1d 9cbd 180b a3be
00000060: 3b3b 35be b2ee 003e 96ee 7c3e
0.31269446 -0.0058300495 -0.07856664 0.3150523 -0.01519382 -0.23877773 0.03505671 0.33171192
0.3009489 0.0720613 0.11237347 0.041016728 0.041057795 0.15730253 -0.32147905 -0.113486975
0.123110265 -0.29867196 -0.26398653 -0.14146492 0.034594417 0.12436366 -0.076227516 -0.318444
-0.17698376 0.12591055 0.24700388

transformer_encoder.1.mha.heads.1.query.bias f4 [3]
00000000: 34c5 85be de41 033e eb25 9d3e
-0.26127017 0.12818095 0.30692992

transformer_encoder.1.mha.heads.1.key.weight f4 [3, 9]
00000000: 5331 86be b871 76be 6425 ea3d ebf6 83be
00000010: b0dc 84be 61da 9e3e c0f1 123d 3adf 95be
00000020: 4ca2 8dbd 2c13 c6bd 6eae 28be bfef 82be
00000030: c505 803e 18de 95be a6e8 593e d054 90be
00000040: e2da 143e 2968 a23e 00fe 553d 5603 49be
00000050: dacd 1e3e c07e f13c 1828 7e3d d68c a0be
00000060: bd15 873e 5c87 a1bd 5342 52be
-0.26209506 -0.24066818 0.11432913 -0.2577432 -0.2594962 0.31025985 0.035875082 -0.2927187
-0.06915721 -0.096716255 -0.1647279 -0.25573537 0.25004402 -0.29271007 0.21280155 -0.28189707
0.14536622 0.31720093 0.052244186 -0.19630179 0.15508214 0.029479384 0.062049955 -0.3135745
0.26383772 -0.07887146 -0.20533113

transformer_encoder.1.mha.heads.1.key.bias f4 [3]
00000000: 5bdb 55be 1d44 9b3e ea88 753e
-0.20884459 0.30325404 0.2397801

transformer_encoder.1.mha.heads.1.value.weight f4 [3, 9]
00000000: 407e b3bb a441 ec3d 9332 a7be d5b9 973e
00000010: 26c0 72be 2c14 f13d 625c 81be 2d43 a13e
00000020: e1c9 803e a699 1a3e 5a17 7c3e 70e0 83be
00000030: db38 72be 20a6 e6bd 98cd 1bbd a037 5cbc
00000040: 3b5e 0cbe c78c 8abe 974f 8ebe bdb4 a43e
00000050: 2c5a c73d 68c1 263d a2ad 6b3e fcc3 863d
00000060: b43a f43d e472 9f3d ebc8 23be
-0.0054776967 0.115359575 -0.32655773 0.29633966 -0.23706111 0.117714256 -0.25265795 0.31496564
0.2515402 0.15097675 0.24618283 -0.2575717 -0.23654501 -0.112621546 -0.038037866 -0.013440996
-0.13707821 -0.2706053 -0.27795097 0.32169142 0.09733996 0.04071179 0.23015454 0.0658035
0.11925259 0.077855855 -0.15994613

transformer_encoder.1.mha.heads.1.value.bias f4 [3]
00000000: 4682 9dbe 8f33 a23e 7e2c 193e
-0.30763453 0.3167996 0.14958379

transformer_encoder.1.mha.heads.2.query.weight f4 [3, 9]
00000000: e24a 1e3e 664e 7d3e 0e51 8ebe ca70 443e
00000010: 6df9 873e d0c7 ac3c c418 89be 60a6 c23d
00000020: d0b3 c1bd e291 1c3e 8095 6abb 2511 9c3e
00000030: 2002 7d3c 7ef0 93be 0b1e 2dbe eb44 85be
00000040: ba42 7c3e 98aa 6ebd 2057 8abe 00ed dcbb
00000050: 9021 ab3c e65a 703e 9b53 04be 4e1c 86be
00000060: b965 a23e 4fa4 8c3e 9bd1 77be
0.15458253 0.24736938 -0.27796215 0.1918365 0.26557484 0.021091372 -0.26776707 0.0950439
-0.09458125 0.15290025 -0.0035794675 0.3048183 0.015442401 -0.28894418 -0.16905992 -0.26029143
0.24634829 -0.05826816 -0.27019596 -0.00674212 0.020890027 0.23472175 -0.12922518 -0.2619347
0.31718233 0.27469108 -0.24201052

transformer_encoder.1.mha.heads.2.query.bias f4 [3]
00000000: 4307 61be ce71 743e 2c17 9cbe
-0.21975426 0.23871538 -0.3048643

transformer_encoder.1.mha.heads.2.key.weight f4 [3, 9]
00000000: 92ee 5e3e 845c aabe 7f8b 97be 9764 9c3e
00000010: 761e 2cbe 38b5 54be e13b 953e 407a b33d
00000020: e5f2 8b3e 6c82 f13d ab5f 3cbe 98e0 1abd
00000030: a3c0 02be 35e2 993e d4ac a2be 8bb8 78be
00000040: 00ba 0ebd 0073 443c 8a04 85be 3eac 65be
00000050: ada4 8a3e 8c6f b2bd 20ea a7be cd19 9c3e
00000060: 804c 60be c2db 4e3e 1057 d83d
0.21770695 -0.3327371 -0.29598615 0.30545494 -0.16808495 -0.20772254 0.29147246 0.08763552
0.2733375 0.11792454 -0.1839587 -0.037811846 -0.12768798 0.30055395 -0.31772482 -0.24289148
-0.034845352 0.011990309 -0.25980026 -0.22428986 0.27078763 -0.08712682 -0.3279581 0.30488434
-0.21904182 0.20201018 0.10563481

transformer_encoder.1.mha.heads.2.key.bias f4 [3]
00000000: 9023 f33c e1e6 943e 78ad 4dbe
0.029680043 0.29082397 -0.20085704

transformer_encoder.1.mha.heads.2.value.weight f4 [3, 9]
00000000: f856 5ebe 5a13 543e ea55 3a3e 7eab 0abe
00000010: 446b f83d 6035 2a3d 1fc6 803e 7865 353d
00000020: bc5a eabd 184c 50be f263 5c3e e207 93be
00000030: cea0 a9be 9657 c2bd 986b 8abe 6885 5abd
00000040: 623c 353e b82e 713d 828b 7e3e 6076 42bc
00000050: 3439 ba3d ee15 26be 656c 893e f257 133e
00000060: cc45 9a3d 9f76 a3be f578 9d3e
-0.21712863 0.20710507 0.18196836 -0.13541982 0.12129834 0.04155481 0.25151154 0.04428622
-0.114430875 -0.20341527 0.21522501 -0.28716952 -0.33130497 -0.09489362 -0.27035213 -0.053349882
0.17698815 0.058882445 0.24857906 -0.011869043 0.09092942 -0.16219303 0.2684051 0.14389017
0.07532844 -0.31926438 0.30756345

transformer_encoder.1.mha.heads.2.value.bias f4 [3]
00000000: e44a 90be c04b bc3d da47 2f3e
-0.28182137 0.09194136 0.17117253

transformer_encoder.1.ln2.weight f4 [9]
00000000: 0000 803f 0000 803f 0000 803f 0000 803f
00000010: 0000 803f 0000 803f 0000 803f 0000 803f
00000020: 0000 803f
1.0 1.0 1.0 1.0 1.0 1.0 1.0 1.0
1.0

transformer_encoder.1.ln2.bias f4 [9]
00000000: 0000 0000 0000 0000 0000 0000 0000 0000
00000010: 0000 0000 0000 0000 0000 0000 0000 0000
00000020: 0000 0000
0.0 0.0 0.0 0.0 0.0 0.0 0.0 0.0
0.0

transformer_encoder.1.mlp.0.weight f4 [36, 9]
00000000: c076 45bd d4bf fa3d 280e 27be a3f7 5cbe
00000010: d0a8 2dbe 9730 9a3e 929a 5a3e 2862 a9be
00000020: 6034 4c3d 2a7c 91be 8433 ed3d 567a 78be
00000030: c084 e9bb 58b3 0dbd 80f5 343b 3cc0 8ebd
00000040: e4a3 e43d 195b 963e 5e0d 433e c39a 0fbe
00000050: ee8a 4dbe 1cca 933d 0080 0bbb 88e3 253d
00000060: 1bee 10be 4282 303e 4e0d 18be f6b6 f4bd
00000070: 1bde 27be 036b 16be 0ab9 573e a065 393d
00000080: 7ecc 783e 96ad d6bd 8403 a8bd 7c0a a3be
00000090: 2a86 103e f653 4d3e 6c0c e53d 0a36 543e
000000a0: d5d1 893e 00d2 aabd 537c 4dbe 00fc 903b
000000b0: 3033 39be 8c97 a4bd 3025 ae3c f02d d23d
000000c0: 1984 833e 2079 44bd 8a3f 4f3e 60d6 50bd
000000d0: fc59 a4be 2652 333e 3524 9d3e e080 46be
000000e0: 4a1c 683e 0286 773e d28c 6f3e 6b4a 84be
000000f0: 82a4 6d3e ee6e 5dbe fc8d 82be 2082 8d3d
00000100: 3bf8 85be f277 81be e6ed 293e 2c91 b5bd
00000110: 8062 73bb 6808 4abd 261d 22be 4009 98bd
00000120: 785a 14bd 6002 1bbd 368f c5bd 40d8 053e
00000130: ee58 a1be ac7c e2bd 7b95 a53e 802e 513b
00000140: 7819 7a3d b8f7 0fbd 5f35 a5be 25c1 a13e
00000150: 5f22 86be 4004 db3d 0b90 913e b851 a1be
00000160: cbe3 4ebe 5882 40be 9062 8cbe 2002 78bc
00000170: 389c 79bd 5808 593d 4ee1 33be 36b5 013e
00000180: 52c6 263e 617e 803e ba8a 593e 6a0d 2a3e
00000190: 3a2d 663e 3876 01bd 5cba a9bd 0849 75be
000001a0: 80b3 6cbe e3d6 11be 6c21 c23d 9e53 1e3e
000001b0: 12ba 093e d8d1 3fbd 9b86 9bbe 7850 46be
000001c0: 302f 9bbe 7166 9a3e 7888 0c3e f8a8 703d
000001d0: 8083 223e 6e1b 4ebe a070 17bd 00ee 113c
000001e0: 3d99 913e 6e58 59be dc49 b03d 0017 e73d
000001f0: 4601 763e e809 0dbd f1c6 9f3e b8a0 3dbd
00000200: 4adf 383e ba2f 733e f8e4 28be 736a 9cbe
00000210: 001c fc3c 2eef 503e 8004 403b 6091 9abe
00000220: 4261 a6be 331d 13be 39f5 863e d007 90bc
00000230: 9a10 463e c3f1 72be 1bc3 a2be 4d4e a63e
00000240: c0aa c73b 5ef0 68be f970 9a3e f850 11be
00000250: ccac d33d b664 523e 0056 773d e7e2 95be
00000260: 8046 a63d 49a2 843e bf27 9fbe 746a 883d
00000270: e09d 22bd 0e5d 373e 0a2c 4a3e 50e6 49be
00000280: 7e76 5dbe 48f4 09bd 60b2 413c 97a0 8d3e
00000290: 14e3 95bd 5613 70be 90e1 bfbd 2ead 02be
000002a0: 47df 9c3e e8c4 73bd 3acc 593e b574 903e
000002b0: 6b6b 7cbe 507e fa3c 2674 133e 50ea d63d
000002c0: e0c5 113d 5828 52be 6ba4 9b3e 00fa 28bb
000002d0: fce3 833d 2ec5 3d3e e32b 48be 205b 723d
000002e0: 2095 c03d e05b ce3d 1ea5 1abe e05c bf3d
000002f0: 667b 313e 93c9 04be 28e4 433d f9ef 923e
00000300: 86a4 54be 58c2 103d 9859 58be 8ef1 16be
00000310: 267e 66be d6a4 f8bd 282a 263e e0e5 723d
00000320: a6f0 263e aca0 f6bd 93b9 953e 26da c7bd
00000330: 1313 69be 3c94 abbd a2cc 4d3e ba18 0e3e
00000340: 3ab2 673e 185b 4f3d 7e00 7bbe 92cd 4b3e
00000350: f0c2 863c 0027 c6bb bba6 77be 6d5e a33e
00000360: 3007 aabc 8d52 a23e 6243 303e 6910 8a3e
00000370: 8a6d 1a3e c07f 8a3c 23a2 94be bccc ec3d
00000380: 7fd5 863e ba46 8fbe 0037 e33b f34f 79be
00000390: d09c c83c da20 733e 4801 99be 0644 3f3e
000003a0: a094 243d 6965 8c3e c49e b43d 89d4 8b3e
000003b0: eb33 80be a832 5ebe 7965 9b3e 7e47 083e
000003c0: 8069 033d 12ef 92be eb50 9c3e f812 7cbd
000003d0: 4cc5 8ebd 2558 a23e 3330 a73e 6ea9 363e
000003e0: 1f91 863e a0e8 10bd 3603 46be c867 7f3d
000003f0: b7e1 913e 50a1 6ebe ad13 873e 342f 823d
-0.048208952 0.122436196 -0.16313994 -0.21578841 -0.16958928 0.30115196 0.21348026 -0.330827
0.049854636 -0.28415042 0.115820915 -0.24265417 -0.0071264207 -0.034594864 0.002761215 -0.069702595
0.11164072 0.29366377 0.19048068 -0.1402388 -0.20072529 0.07216284 -0.002128601 0.040500194
-0.1415333 0.1723719 -0.14848825 -0.119489595 -0.1639332 -0.14689259 0.2106668 0.045262933
0.24296758 -0.10482328 -0.082037956 -0.31843936 0.1411368 0.2005156 0.1118401 0.2072374
0.26917902 -0.083408356 -0.20066957 0.004424572 -0.18085933 -0.08036718 0.021257967 0.10262668
0.2568672 -0.047967076 0.20239082 -0.050985694 -0.32099903 0.17511806 0.30691686 -0.193851
0.22667041 0.24172214 0.23393562 -0.25838026 0.23207286 -0.21624348 -0.2549895 0.06909585
-0.26165947 -0.25286824 0.16594657 -0.0886558 -0.0037137568 -0.049324423 -0.15831432 -0.07423639
-0.03621909 -0.03784406 -0.09646456 0.13070774 -0.3151316 -0.110589355 0.32340607 0.0031918585
0.061059445 -0.035148352 -0.3226728 0.3159267 -0.26198098 0.1069417 0.2843021 -0.3150766
-0.20204084 -0.18799722 -0.27418947 -0.015137225 -0.060939997 0.052986473 -0.17566416 0.12666783
0.1628659 0.2509642 0.21244326 0.1660668 0.2247819 -0.031606883 -0.08287498 -0.2395364
-0.23115349 -0.14242129 0.09479031 0.15461585 0.13449886 -0.046830982 -0.30376133 -0.19366634
-0.3030944 0.30156282 0.13723934 0.05875489 0.15870476 -0.20127651 -0.036972642 0.008906841
0.28437224 -0.2122514 0.086078376 0.11283684 0.24023923 -0.034433275 0.31206468 -0.04629585
0.18053928 0.23748675 -0.16493595 -0.30549964 0.03077507 0.2040374 0.0029299557 -0.30189037
-0.32496077 -0.14366607 0.26358965 -0.01758185 0.1934227 -0.23725037 -0.3178948 0.32481614
0.006093353 -0.22747943 0.30164316 -0.14191043 0.10335693 0.2054623 0.06038475 -0.29274675
0.081189156 0.25905064 -0.3108501 0.06660929 -0.039701343 0.17906591 0.19743362 -0.19716763
-0.21627232 -0.03368023 0.011822313 0.27661583 -0.07318702 -0.23444876 -0.093691945 -0.12761375
0.30639097 -0.059513956 0.21269313 0.2821404 -0.24650352 0.030577809 0.14399776 0.1049391
0.0355891 -0.20523202 0.30398878 -0.0025783777 0.06439969 0.1853225 -0.19547991 0.059168935
0.09403443 0.100761175 -0.1510205 0.093438864 0.17332229 -0.1296752 0.04782501 0.2869871
-0.20765886 0.03534159 -0.21127927 -0.14740583 -0.2250906 -0.12140815 0.16227019 0.059301257
0.16302738 -0.120423645 0.29243144 -0.097584054 -0.22761182 -0.08377883 0.20097592 0.1387662
0.22626582 0.050623983 -0.24511907 0.19902638 0.016450375 -0.0060471296 -0.24184696 0.3190798
-0.02075538 0.31703606 0.17213205 0.26965645 0.15080848 0.01690662 -0.2902995 0.115624875
0.2633476 -0.27983648 0.0069340467 -0.24346904 0.024488837 0.23743 -0.2988379 0.18678293
0.040180802 0.2742112 0.08819345 0.2731059 -0.2503961 -0.21699011 0.30350855 0.13308522
0.032083035 -0.2869802 0.30530486 -0.061541528 -0.06971225 0.31707874 0.3265396 0.1783807
0.26282594 -0.0353781 -0.19337162 0.062354833 0.2849252 -0.23303723 0.263822 0.063566595

transformer_encoder.1.mlp.0.bias f4 [36]
00000000: 80e4 0b3c 184c 7b3d 3fe5 80be 53b8 a0be
00000010: 76cb 5c3e 304e 74be 8bdc 2dbe 17a6 a83e
00000020: 3e89 89be a23c 95be 9a91 7e3e 467f 34be
00000030: aaf9 213e a355 a33e 5860 49bd 9605 fcbd
00000040: 2559 973e e224 aabe 185f 1abd b0cb ab3d
00000050: 20a2 ab3d c8ac 36be 0bc6 59be 3032 a7bc
00000060: 0df4 9d3e d057 ddbd b5be 9d3e 6c5a 9dbd
00000070: 39c4 883e 1084 073e a029 1a3d 324b 6b3e
00000080: 9037 cb3d 6664 9fbe d63d 7cbe df34 a2be
0.008538365 0.061351866 -0.251749 -0.31390628 0.21561989 -0.23857951 -0.16978662 0.32939216
-0.2686252 -0.29147822 0.2486023 -0.17626676 0.15817896 0.31901273 -0.049164146 -0.12305753
0.295602 -0.33231264 -0.037688345 0.0838846 0.08380532 -0.17839348 -0.21266954 -0.020409673
0.30850258 -0.108077645 0.3080956 -0.07683262 0.26712206 0.13233972 0.037637353 0.22977903
0.09922707 -0.31131285 -0.24632964 -0.31680962
